…
Number of features after adding flipped non zero angled images - 3918
X_train has 2938 elements. removed 0
X_valid has 489 elements. removed 0
X_test has 491 elements. remove 0
Using generator
starting model
Epoch 1/1
3000/3000 [==============================] - 8s - loss: 0.0305 - val_loss: 0.0399
Test score 0.04484960958361626
____________________________________________________________________________________________________
Layer (type)                     Output Shape          Param #     Connected to
====================================================================================================
lambda_1 (Lambda)                (None, 80, 160, 3)    0           lambda_input_1[0][0]
____________________________________________________________________________________________________
convolution2d_1 (Convolution2D)  (None, 38, 78, 24)    1824        lambda_1[0][0]
____________________________________________________________________________________________________
activation_1 (Activation)        (None, 38, 78, 24)    0           convolution2d_1[0][0]
____________________________________________________________________________________________________
convolution2d_2 (Convolution2D)  (None, 17, 37, 36)    21636       activation_1[0][0]
____________________________________________________________________________________________________
dropout_1 (Dropout)              (None, 17, 37, 36)    0           convolution2d_2[0][0]
____________________________________________________________________________________________________
activation_2 (Activation)        (None, 17, 37, 36)    0           dropout_1[0][0]
____________________________________________________________________________________________________
convolution2d_3 (Convolution2D)  (None, 7, 17, 48)     43248       activation_2[0][0]
____________________________________________________________________________________________________
dropout_2 (Dropout)              (None, 7, 17, 48)     0           convolution2d_3[0][0]
____________________________________________________________________________________________________
activation_3 (Activation)        (None, 7, 17, 48)     0           dropout_2[0][0]
____________________________________________________________________________________________________
convolution2d_4 (Convolution2D)  (None, 5, 15, 64)     27712       activation_3[0][0]
____________________________________________________________________________________________________
dropout_3 (Dropout)              (None, 5, 15, 64)     0           convolution2d_4[0][0]
____________________________________________________________________________________________________
activation_4 (Activation)        (None, 5, 15, 64)     0           dropout_3[0][0]
____________________________________________________________________________________________________
convolution2d_5 (Convolution2D)  (None, 3, 13, 64)     36928       activation_4[0][0]
____________________________________________________________________________________________________
dropout_4 (Dropout)              (None, 3, 13, 64)     0           convolution2d_5[0][0]
____________________________________________________________________________________________________
maxpooling2d_1 (MaxPooling2D)    (None, 1, 6, 64)      0           dropout_4[0][0]
____________________________________________________________________________________________________
activation_5 (Activation)        (None, 1, 6, 64)      0           maxpooling2d_1[0][0]
____________________________________________________________________________________________________
flatten_1 (Flatten)              (None, 384)           0           activation_5[0][0]
____________________________________________________________________________________________________
dropout_5 (Dropout)              (None, 384)           0           flatten_1[0][0]
____________________________________________________________________________________________________
activation_6 (Activation)        (None, 384)           0           dropout_5[0][0]
____________________________________________________________________________________________________
hidden1 (Dense)                  (None, 512)           197120      activation_6[0][0]
____________________________________________________________________________________________________
activation_7 (Activation)        (None, 512)           0           hidden1[0][0]
____________________________________________________________________________________________________
hidden2 (Dense)                  (None, 256)           131328      activation_7[0][0]
____________________________________________________________________________________________________
activation_8 (Activation)        (None, 256)           0           hidden2[0][0]
____________________________________________________________________________________________________
hidden3 (Dense)                  (None, 50)            12850       activation_8[0][0]
____________________________________________________________________________________________________
activation_9 (Activation)        (None, 50)            0           hidden3[0][0]
____________________________________________________________________________________________________
output (Dense)                   (None, 1)             51          activation_9[0][0]
====================================================================================================
Total params: 472697
____________________________________________________________________________________________________
None
Saved model to disk

12. refinement model built on refined model from step 10. - stuck on bridge    (refine_2)
----------------------------
Starting a new cycle
…
