…
Number of features after adding flipped non zero angled images - 26346
X_train has 19759 elements. removed 0
X_valid has 3293 elements. removed 0
X_test has 3294 elements. remove 0
Using generator
starting model
Epoch 1/1
19776/19776 [==============================] - 75s - loss: 0.0135 - val_loss: 0.0143
Test score 0.01437309897477621
____________________________________________________________________________________________________
Layer (type)                     Output Shape          Param #     Connected to
====================================================================================================
lambda_1 (Lambda)                (None, 80, 160, 3)    0           lambda_input_1[0][0]
____________________________________________________________________________________________________
convolution2d_1 (Convolution2D)  (None, 38, 78, 24)    1824        lambda_1[0][0]
____________________________________________________________________________________________________
leaky relu 1 (LeakyReLU)         (None, 38, 78, 24)    0           convolution2d_1[0][0]
____________________________________________________________________________________________________
convolution2d_2 (Convolution2D)  (None, 17, 37, 36)    21636       leaky relu 1[0][0]
____________________________________________________________________________________________________
dropout_1 (Dropout)              (None, 17, 37, 36)    0           convolution2d_2[0][0]
____________________________________________________________________________________________________
leaky relu 2 (LeakyReLU)         (None, 17, 37, 36)    0           dropout_1[0][0]
____________________________________________________________________________________________________
convolution2d_3 (Convolution2D)  (None, 7, 17, 48)     43248       leaky relu 2[0][0]
____________________________________________________________________________________________________
dropout_2 (Dropout)              (None, 7, 17, 48)     0           convolution2d_3[0][0]
  __________________________________________________________________________________________________
leaky relu 3 (LeakyReLU)         (None, 7, 17, 48)     0           dropout_2[0][0]
____________________________________________________________________________________________________
convolution2d_4 (Convolution2D)  (None, 5, 15, 64)     27712       leaky relu 3[0][0]
____________________________________________________________________________________________________
dropout_3 (Dropout)              (None, 5, 15, 64)     0           convolution2d_4[0][0]
____________________________________________________________________________________________________
leaky relu 4 (LeakyReLU)         (None, 5, 15, 64)     0           dropout_3[0][0]
____________________________________________________________________________________________________
convolution2d_5 (Convolution2D)  (None, 3, 13, 64)     36928       leaky relu 4[0][0]
____________________________________________________________________________________________________
dropout_4 (Dropout)              (None, 3, 13, 64)     0           convolution2d_5[0][0]
____________________________________________________________________________________________________
maxpooling2d_1 (MaxPooling2D)    (None, 1, 6, 64)      0           dropout_4[0][0]
____________________________________________________________________________________________________
leaky relu 5 (LeakyReLU)         (None, 1, 6, 64)      0           maxpooling2d_1[0][0]
____________________________________________________________________________________________________
flatten_1 (Flatten)              (None, 384)           0           leaky relu 5[0][0]
____________________________________________________________________________________________________
dropout_5 (Dropout)              (None, 384)           0           flatten_1[0][0]
____________________________________________________________________________________________________
leaky relu 6 (LeakyReLU)         (None, 384)           0           dropout_5[0][0]
____________________________________________________________________________________________________
hidden1 (Dense)                  (None, 512)           197120      leaky relu 6[0][0]
____________________________________________________________________________________________________
leaky relu 7 (LeakyReLU)         (None, 512)           0           hidden1[0][0]
____________________________________________________________________________________________________
hidden2 (Dense)                  (None, 256)           131328      leaky relu 7[0][0]
____________________________________________________________________________________________________
leaky relu 8 (LeakyReLU)         (None, 256)           0           hidden2[0][0]
____________________________________________________________________________________________________
hidden3 (Dense)                  (None, 50)            12850       leaky relu 8[0][0]
____________________________________________________________________________________________________
leaky relu 9 (LeakyReLU)         (None, 50)            0           hidden3[0][0]
____________________________________________________________________________________________________
output (Dense)                   (None, 1)             51          leaky relu 9[0][0]
====================================================================================================
Total params: 472697
____________________________________________________________________________________________________
None
Saved model to disk

2. working model-- 10 cycles, using leakyRelu's
carnd@ip-172-31-43-94:~/behavioral-kera$ python3 p3.py True .0001 'data/' 'model_base'
…
